vikassharma@Vikass-Mac-mini Assing_8 % python3 train.py
----------------------------------------------------------------
        Layer (type)               Output Shape         Param #
================================================================
            Conv2d-1           [-1, 32, 32, 32]             896
       BatchNorm2d-2           [-1, 32, 32, 32]              64
              ReLU-3           [-1, 32, 32, 32]               0
           Dropout-4           [-1, 32, 32, 32]               0
            Conv2d-5           [-1, 32, 32, 32]             320
       BatchNorm2d-6           [-1, 32, 32, 32]              64
              ReLU-7           [-1, 32, 32, 32]               0
           Dropout-8           [-1, 32, 32, 32]               0
            Conv2d-9           [-1, 32, 32, 32]           1,056
      BatchNorm2d-10           [-1, 32, 32, 32]              64
             ReLU-11           [-1, 32, 32, 32]               0
           Conv2d-12           [-1, 64, 32, 32]             640
      BatchNorm2d-13           [-1, 64, 32, 32]             128
             ReLU-14           [-1, 64, 32, 32]               0
          Dropout-15           [-1, 64, 32, 32]               0
           Conv2d-16           [-1, 64, 32, 32]             640
      BatchNorm2d-17           [-1, 64, 32, 32]             128
             ReLU-18           [-1, 64, 32, 32]               0
          Dropout-19           [-1, 64, 32, 32]               0
           Conv2d-20           [-1, 64, 32, 32]           4,160
      BatchNorm2d-21           [-1, 64, 32, 32]             128
             ReLU-22           [-1, 64, 32, 32]               0
           Conv2d-23          [-1, 128, 32, 32]           1,280
      BatchNorm2d-24          [-1, 128, 32, 32]             256
             ReLU-25          [-1, 128, 32, 32]               0
          Dropout-26          [-1, 128, 32, 32]               0
           Conv2d-27          [-1, 128, 32, 32]           1,280
      BatchNorm2d-28          [-1, 128, 32, 32]             256
             ReLU-29          [-1, 128, 32, 32]               0
          Dropout-30          [-1, 128, 32, 32]               0
           Conv2d-31          [-1, 128, 32, 32]          16,512
      BatchNorm2d-32          [-1, 128, 32, 32]             256
             ReLU-33          [-1, 128, 32, 32]               0
           Conv2d-34          [-1, 256, 32, 32]           2,560
      BatchNorm2d-35          [-1, 256, 32, 32]             512
             ReLU-36          [-1, 256, 32, 32]               0
          Dropout-37          [-1, 256, 32, 32]               0
           Conv2d-38          [-1, 256, 32, 32]           2,560
      BatchNorm2d-39          [-1, 256, 32, 32]             512
             ReLU-40          [-1, 256, 32, 32]               0
          Dropout-41          [-1, 256, 32, 32]               0
           Conv2d-42          [-1, 256, 32, 32]          65,792
      BatchNorm2d-43          [-1, 256, 32, 32]             512
             ReLU-44          [-1, 256, 32, 32]               0
AdaptiveAvgPool2d-45            [-1, 256, 1, 1]               0
           Linear-46                  [-1, 128]          32,896
           Linear-47                   [-1, 10]           1,290
================================================================
Total params: 134,762
Trainable params: 134,762
Non-trainable params: 0
----------------------------------------------------------------
Input size (MB): 0.01
Forward/backward pass size (MB): 41.25
Params size (MB): 0.51
Estimated Total Size (MB): 41.78
----------------------------------------------------------------
Files already downloaded and verified
…
